NLP/param/net.pt (torch, 4487 bytes, 3 tensors)

_emb f4 [240, 3]
0	0xbd953f02	-0.072874084
1	0xbcbbef87	-0.022941364
2	0xbec11009	-0.37707546
3	0xbceee451	-0.029161604
4	0xbc083268	-0.008312799
5	0xbd2414fb	-0.04005907
6	0xbe1c94f8	-0.15291202
7	0xbf6e61a9	-0.9311777
8	0x3dc8551b	0.097818576
9	0xbe39fd28	-0.18162978
10	0xbd8de611	-0.06928647
11	0xbf8c8631	-1.0978452
12	0x3ea6fbbd	0.32613936
13	0xbecef337	-0.40419933
14	0xbd91af44	-0.071135074
15	0x3e85ca65	0.26130977
16	0xbe5fcc50	-0.21855283
17	0xbf6be554	-0.921468
18	0x3e2301d3	0.15918665
19	0xbea6c80a	-0.32574493
20	0xbf3fa750	-0.74864674
21	0xbc4ab450	-0.012372091
22	0xbefc6743	-0.49297532
23	0xbf299d59	-0.6625572
24	0x3f150569	0.5821138
25	0x3eb254dc	0.34830368
26	0xbd06e12a	-0.032929577
27	0x3e754939	0.23953713
28	0x3f1b041d	0.6055315
29	0x3f4aff33	0.79295653
30	0xbf2d8a2e	-0.6778897
31	0x3f2eff81	0.6835862
32	0x3ef26256	0.4734065
33	0x3f88759a	1.0660889
34	0x3faeff63	1.3671688
35	0xbf615064	-0.8801329
36	0xbe468ec3	-0.19390397
37	0xbf25d1b3	-0.647731
38	0xbecd5a6a	-0.40108043
39	0x3c72e5c4	0.014825288
40	0xbf203241	-0.6257668
41	0xbf0fa3d4	-0.56109357
42	0x3e232f3b	0.15935986
43	0x3eecd9f8	0.46260047
44	0x3f4765b2	0.7788955
45	0x3e350adc	0.17679924
46	0xbd2864f7	-0.041111913
47	0xbe1db013	-0.15399198
48	0xbf25f9db	-0.64834374
49	0xbd243214	-0.04008682
50	0x3f98d529	1.1940051
51	0x3dd5bbcc	0.1043621
52	0x3f3887a3	0.72081965
53	0x3db0f195	0.08639828
54	0x3e5ceee6	0.21575508
55	0x3e12aae0	0.14322996
56	0xbefdfb0e	-0.49605602
57	0xbe52cb18	-0.20585287
58	0x3e3dc52c	0.18532246
59	0x3e5e8aa0	0.21732569
60	0xbf018693	-0.5059597
61	0xbf5222b0	-0.8208418
62	0xbdecd654	-0.11564317
63	0xbce2bda0	-0.02767831
64	0xbf334714	-0.7003033
65	0xbf123f42	-0.57127774
66	0x3f326a89	0.6969381
67	0xbd51d8b6	-0.051232062
68	0xbf1bba39	-0.6083103
69	0x3f345368	0.7043977
70	0x3f3bf0b1	0.7341414
71	0x3d3bf9b8	0.045892447
72	0x3e995185	0.29945007
73	0x3d90840a	0.070564345
74	0xbd509a4d	-0.050928403
75	0xbf116001	-0.56787115
76	0x3e8f33f3	0.27969322
77	0xbeb8f50b	-0.36124453
78	0x3f6e6961	0.93129545
79	0x3e37cdb6	0.17949566
80	0x3e5d5850	0.2161572
81	0xbf17ba1d	-0.5926836
82	0x3cb65f0f	0.022262124
83	0x3d60adf5	0.0548534
84	0x3f766e8f	0.9626245
85	0x3e7e4b67	0.24833451
86	0xbdfb6ff9	-0.122772165
87	0x3f8f92a4	1.1216626
88	0x3e89396b	0.2680162
89	0xbee22e20	-0.44175816
90	0x3d789832	0.06069202
91	0x3e2c4b45	0.16825588
92	0xbf0efc9f	-0.5585422
93	0xbcba6643	-0.02275384
94	0x3e2f6188	0.17127049
95	0x3d8c96e7	0.0686472
96	0xbfb69ec1	-1.4267198
97	0xbeedded5	-0.4645907
98	0xbdf3200d	-0.118713476
99	0xbe8760e3	-0.26441106
100	0x3eb2305f	0.3480253
101	0x3be39a7b	0.0069459057
102	0xbfe6b26a	-1.8023198
103	0x3d72a5b9	0.059240077
104	0x3f11812c	0.56837726
105	0x3eed8e75	0.4639775
106	0x3f66113f	0.89870065
107	0xbd8d954f	-0.06913244
108	0x3e174445	0.14772137
109	0xbdfb0dd5	-0.122584976
110	0xbda7476b	-0.08167919
111	0xbe150842	-0.14553931
112	0x3f71e889	0.94495445
113	0xbf696aa7	-0.91178364
114	0x3fb0385c	1.37672
115	0x3dba8d4b	0.09108981
116	0xbf1ec380	-0.6201706
117	0xbc3f5366	-0.011677599
118	0xbea4bce3	-0.3217536
119	0xbf22d200	-0.63601685
120	0x3e93eea3	0.28893003
121	0xbe958224	-0.29200852
122	0xbf0e7565	-0.5564788
123	0x3f3a0790	0.7266779
124	0xbe4df372	-0.20112398
125	0xbe3b60a4	-0.18298584
126	0x3edd1043	0.4317647
127	0x3e9aa57b	0.30204377
128	0xbe78b5e7	-0.2428814
129	0xbeecad98	-0.46226192
130	0x3df987a3	0.12184074
131	0xbf4665ec	-0.7749927
132	0x3f4c3d7d	0.79781324
133	0x3f8c992c	1.0984244
134	0xbf0f3c35	-0.55951244
135	0x3f2de330	0.67924786
136	0x3f42427d	0.75882703
137	0xbe22a5e5	-0.15883596
138	0xbf426eb5	-0.75950176
139	0x3ec85429	0.3912671
140	0x3f1405e7	0.57821506
141	0x3dd9ce14	0.106350094
142	0xbd48d891	-0.04903466
143	0xbecf5617	-0.4049537
144	0x3ee05825	0.4381725
145	0xbe320339	-0.17384042
146	0x3f2fe829	0.68713623
147	0x3c4f6ffd	0.012660977
148	0x3e552f13	0.20818739
149	0x3e5f9ae0	0.21836424
150	0x3eb1b4cd	0.34708253
151	0x3e22a5e1	0.1588359
152	0xbe9feaf1	-0.31233934
153	0xbec4ddf9	-0.38450602
154	0xbeeb7b5f	-0.45992562
155	0xbea84d58	-0.3287151
156	0x3ee20888	0.44147134
157	0x3f1da6f7	0.61582893
158	0x3f17f291	0.593545
159	0x3f3ba9ea	0.73306143
160	0x3f0a30ac	0.5398052
161	0x3dc3fe85	0.0957003
162	0xbf09e2c8	-0.53861666
163	0x3d94388b	0.07237347
164	0xbde64f9a	-0.112456515
165	0x3e2aa993	0.1666625
166	0x3e7d82af	0.24756883
167	0x3e210890	0.15725923
168	0x3eb68e42	0.3565541
169	0xbec1cc33	-0.37851104
170	0xbee9c27a	-0.45656186
171	0x3ec5786c	0.38568437
172	0x3f93ba84	1.1541295
173	0x3e9cf8a9	0.30658463
174	0xbf21663e	-0.63046634
175	0xbf824cda	-1.0179703
176	0xbf56b355	-0.8386739
177	0x3e0fcaf8	0.1404227
178	0x3ef43a6c	0.47700822
179	0xbce9aca2	-0.0285247
180	0xbe3fe5cd	-0.18740006
181	0xbf05cf08	-0.5226903
182	0xbedfbd59	-0.43699148
183	0x3f73c258	0.9521842
184	0x3f611f43	0.87938327
185	0xbe8e3924	-0.2777797
186	0xbe498a18	-0.19681585
187	0xbeaf3986	-0.34223574
188	0xbec1f861	-0.3788481
189	0x3efc2c0e	0.4925236
190	0xbe0bcbe0	-0.13651991
191	0xbfabedb0	-1.3431911
192	0xbf4d0dac	-0.80098987
193	0xbf3a5bba	-0.72796214
194	0xbe9fb4df	-0.3119268
195	0xbde42b9d	-0.11141131
196	0xbdcdb3d4	-0.10044065
197	0x3eb8598c	0.3600582
198	0x3f53a737	0.82677025
199	0x3f9193fa	1.1373284
200	0xbf1d9161	-0.61549956
201	0x3f2304b5	0.6367906
202	0x3e846ef4	0.258659
203	0xbe484f74	-0.19561559
204	0xbf13bec4	-0.5771296
205	0xbebbef62	-0.36706072
206	0xbedcd61f	-0.4313211
207	0xbdbe69db	-0.09297534
208	0x3f0dde1d	0.5541704
209	0xbe8cdb0e	-0.27510875
210	0x3f05752f	0.5213193
211	0x3e99749a	0.29971772
212	0xbec286f8	-0.37993598
213	0xbd1697e7	-0.03676596
214	0xbeb28143	-0.34864244
215	0xbedec0cf	-0.43506476
216	0x3f21ad54	0.631551
217	0x3e798012	0.24365261
218	0xbeb4ad31	-0.35288385
219	0xbe2e966b	-0.17049567
220	0xbf52249d	-0.8208712
221	0xbe965fb4	-0.2936989
222	0x3f4d9b13	0.8031475
223	0x3dfcc3c9	0.123420306
224	0xbec7f45b	-0.39053616
225	0xbebc519f	-0.36781022
226	0x3e191a3a	0.14951411
227	0x3ee5b4bc	0.44864452
228	0xbddbc441	-0.10730792
229	0x3e994f17	0.29943153
230	0x3f431463	0.7620298
231	0xbea2b274	-0.31776774
232	0xbe7e2c87	-0.24821673
233	0xbe6e5b09	-0.23276915
234	0x3fb3587b	1.4011377
235	0x3f91bac9	1.1385127
236	0x3eeaa6b1	0.458303
237	0xbf026129	-0.50929505
238	0x3ef70f80	0.48254013
239	0xbd8c821a	-0.068607524
240	0x3ecb35c3	0.39689454
241	0xbdbb8ff7	-0.091583185
242	0xbe3e07c8	-0.18557656
243	0x3ef8cf04	0.4859544
244	0x3ddfc72b	0.1092666
245	0x3cb052d0	0.021523863
246	0x3ed59188	0.41712594
247	0x3ea0bb46	0.31392878
248	0x3e6184d6	0.22023329
249	0x3f0cedef	0.5505056
250	0x3eec215c	0.461192
251	0xbebc26cc	-0.3674835
252	0x3ea9becd	0.33153382
253	0xbe86a36b	-0.26296553
254	0x3c01c50c	0.007920515
255	0x3fe321ba	1.7744668

_layer.weight f4 [3, 12]
0	0xbe367266	-0.17817077
1	0xbe23f8e6	-0.16012916
2	0xbf2820f3	-0.65675277
3	0x3f0bcfb2	0.5461379
4	0x3f205f67	0.6264557
5	0x3ed78498	0.42093349
6	0x3f2f7d19	0.6855026
7	0xbed8fc8c	-0.42380178
8	0x3d586c52	0.052837677
9	0xbe0bd268	-0.13654482
10	0x3df07d25	0.117426194
11	0xbcacb4ab	-0.021082243
12	0x3e03cfe8	0.12872279
13	0x3e171b10	0.14756417
14	0x3f0bcec8	0.546124
15	0xbdfe3798	-0.124129474
16	0xbe5a8baf	-0.21342348
17	0x3f68764f	0.90805525
18	0x3f4f9f15	0.81102115
19	0xbe8e8c41	-0.2784138
20	0xbcb4b2d8	-0.022057936
21	0xbea78ae3	-0.3272315
22	0x3e959ff9	0.29223612
23	0xbd735b78	-0.059413403
24	0x3c7db11a	0.015484119
25	0x3bbe1079	0.0058003035
26	0x3cf59bec	0.029981576
27	0xbdb781b3	-0.08960285
28	0xbdf1b017	-0.118011646
29	0xbeab756c	-0.33488023
30	0x3e39402b	0.18090884
31	0x3f5e4c23	0.86834925
32	0xbed04c54	-0.40683234
33	0xbf41513b	-0.7551457
34	0x3f2c6f9a	0.6735779
35	0xbe1ac02a	-0.15112367

_layer.bias f4 [3]
0	0xbd16fdd7	-0.036863174
1	0x3e83fa98	0.25777125
2	0xbeb4544f	-0.35220572
