project08/param/net.pt (torch, 985231 bytes, 44 tensors)

net1.layer1.0.weight f4 [32, 26, 2]
-0.0779144 -0.13664106 -0.06607908 0.054983377 -0.018453116 -0.018705575 0.06248685 -0.0568027
0.122596085 0.05029575 0.0036377066 -0.076430716 -0.10368747 0.006492246 -0.017888812 0.035135746
-0.02367724 -0.12412163 0.042436168 -0.071162485 -0.1145673 -0.08736633 0.086877756 0.118183546
-0.117602706 -0.07178227 -0.13480988 -0.0966274 -0.0017080903 0.047967985 0.105982386 -0.04214956
0.05955109 -0.12518656 0.024371872 0.041457735 0.01665673 0.049142133 -0.10821114 0.0742099
-0.031752646 -0.07776205 0.061656635 -0.013717656 -0.04099179 -0.10823396 -0.0578877 -0.13101275
-0.037981242 0.0080903545 0.037281364 -0.124552876 0.07108935 0.07413305 0.1047174 0.13234045
0.027524598 -0.13529912 -0.008064854 -0.0050960756 -0.014896514 0.10861623 -0.01508174 -0.11372951
-0.046018578 -0.12668547 -0.06964227 -0.06024947 0.09887874 -0.036344383 0.06968209 0.06652108
-0.03394767 0.050322384 -0.03941582 0.13826641 -0.03319097 -0.086113654 0.07392608 -0.034513023
0.07546219 0.12951602 0.065461576 -0.089441836 0.044196453 0.0063337125 -0.09423993 -0.103660166
0.13997829 0.1029559 -0.05017666 0.05903909 -0.09242523 0.033055976 -0.101295814 -0.005420654
0.010282168 0.062241077 0.118157096 -0.09385979 0.057331078 -0.0074520097 -0.0859987 0.08846004
-0.05953182 -0.12436899 -0.023919016 0.0059548467 -0.050131973 0.017666718 0.0486053 -0.010919574
0.016000478 0.003676933 0.06337527 -0.06009305 0.035389256 0.11261058 0.030680599 -0.062079553
0.097793 0.039276484 -0.02625776 0.043440893 -0.07687326 0.008385853 -0.0806275 0.040890247
-0.008723928 0.03433879 -0.0061168396 -0.09818619 0.09697814 -0.00395149 -0.12992242 0.09781593
-0.037509188 -0.028850649 -0.05456245 0.030612256 0.119957216 0.04345919 0.109213635 0.11781664
0.085906535 -0.05559759 -0.1300854 0.018306315 0.05100564 0.045534737 -0.057525903 0.10258566
0.04377589 0.10779292 0.0059101433 0.027697757 -0.07134264 0.031982224 -0.08781083 -0.010410741
-0.015217458 0.039970018 -0.02726075 0.04185263 0.109586164 -0.0076609966 0.10567944 0.02588815
0.08422139 -0.084658526 -0.1072569 -0.10689247 0.028025271 0.09758199 0.12548132 -0.045088477
-0.092798755 -0.13834462 0.039542105 0.091718204 -0.017276146 0.11078889 -0.102873124 -0.009934363
-0.05559296 -0.04131653 -0.039805938 0.08781175 0.08256135 -0.055780347 -0.12205435 -0.07625561
-0.10683456 0.097164586 -0.042741563 0.03680431 0.007640332 -0.12934904 0.13669601 -0.0879962
-0.093497775 -0.03817432 0.10783058 -0.005747989 -0.012527115 -0.0036990338 0.055229723 -0.040628165
0.09531001 0.12284874 -0.013488635 0.036474332 -0.01732724 0.038017336 -0.089215904 0.056108076
0.03722378 -0.11109636 -0.048506074 0.074676886 -0.07729608 0.13697834 -0.057890102 -0.12567954
0.095950484 -0.113533065 -0.11640237 -0.004940629 -0.03401521 -0.039555877 0.1258382 -0.016599666
-0.061703525 -0.10660981 -0.08310158 0.12474566 0.03576316 -0.045281924 0.04061325 -0.016220484
0.13684194 0.03982247 -0.09144183 0.043763634 0.08662055 -0.10423219 -0.12871233 0.061444256
0.11960162 0.07543065 -0.026509525 0.018489787 0.12054048 0.10486407 -0.045316305 -0.055745214
00000000: 9691 9fbd a2eb 0bbe 7854 87bd 4036 613d
00000010: fd2a 97bc 6f3c 99bc 36f2 7f3d f3a9 68bd
00000020: a813 fb3d eb02 4e3d 9766 6e3b b587 9cbd
00000030: 195a d4bd e8bc d43b 8f8b 92bc 80ea 0f3d
00000040: c5f6 c1bc 7b33 febd 8cd1 2d3d a3bd 91bd
00000050: 43a2 eabd 1eed b2bd f7ec b13d 370a f23d
00000060: b0d9 f0bd 9502 93bd 9a0b 0abe 96e4 c5bd
00000070: 00e2 dfba 147a 443d 4b0d d93d 04a5 2cbd
00000080: d8eb 733d e830 00be 85a7 c73c 96cf 293d
00000090: b273 883c 4349 493d cd9d ddbd 5cfb 973d
000000a0: 100f 02bd b641 9fbd ab8b 7c3d 05c0 60bc
000000b0: 02e7 27bd c4a9 ddbd a71b 6dbd 3528 06be
000000c0: 3892 1bbd 688d 043c 58b4 183d 9415 ffbd
000000d0: 4b97 913d 12d3 973d 1476 d63d 4184 073e
000000e0: 447b e13c da8b 0abe 7322 04bc fbfc a6bb
000000f0: 8210 74bc 3072 de3d 6719 77bc 04eb e8bd
00000100: fa7d 3cbd d6b9 01be 9ba0 8ebd 26c8 76bd
00000110: f080 ca3d d9dd 14bd 7cb5 8e3d 343c 883d
00000120: b60c 0bbd d81e 4e3d 7c72 21bd b695 0d3e
00000130: 41f3 07bd 5b5c b0bd 8e66 973d 875d 0dbd
00000140: ec8b 9a3d d99f 043e b810 863d 482d b7bd
00000150: 5707 353d 088b cf3b dd00 c1bd c84b d4bd
00000160: 7856 0f3e 8bda d23d 0b86 4dbd f9d2 713d
00000170: 7049 bdbd b465 073d 2e74 cfbd be9f b1bb
00000180: 8a76 283c 80f0 7e3d 59fc f13d 9039 c0bd
00000190: fed3 6a3d fd2f f4bb 1620 b0bd 8a2a b53d
000001a0: a3d7 73bd 2bb5 febd d0f1 c3bc e020 c33b
000001b0: 2f57 4dbd cbb9 903c 5a16 473d 03e8 32bc
000001c0: 6f13 833c b3f8 703b e5ca 813d 2124 76bd
000001d0: 53f4 103d 60a0 e63d e155 fb3c 2147 7ebd
000001e0: b247 c83d 61e0 203d 841a d7bc 14ef 313d
000001f0: ba6f 9dbd d164 093c 0820 a5bd 887c 273d
00000200: ceee 0ebc d5a6 0c3d c56f c8bb d715 c9bd
00000210: 7a9c c63d 807b 81bb 620a 05be b853 c83d
00000220: 3ca3 19bd 3258 ecbc e07c 5fbd 8ec6 fa3c
00000230: 21ac f53d 4302 323d 66ab df3d da49 f13d
00000240: c4ef af3d 4cba 63bd 1b35 05be 20f7 953c
00000250: 4aeb 503d a282 3a3d 48a0 6bbd 6e18 d23d
00000260: 594e 333d 89c2 dc3d e0a9 c13b 68e6 e23c
00000270: 171c 92bd cbff 023d 2ad6 b3bd d091 2abc
00000280: a552 79bc 9ab7 233d f051 dfbc aa6d 2b3d
00000290: b66e e03d 1909 fbbb 766e d83d 6313 d43c
000002a0: 447c ac3d 7361 adbd 81a9 dbbd 70ea dabd
000002b0: 4195 e53c 11d9 c73d 2d7e 003e b2ae 38bd
000002c0: 460d bebd 36aa 0dbe e7f6 213d c1d6 bb3d
000002d0: b486 8dbc 49e5 e23d 25af d2bd bdc3 22bc
000002e0: 72b5 63bd 863b 29bd 8d0b 23bd a6d6 b33d
000002f0: ed15 a93d ef79 64bd a2f7 f9bd e72b 9cbd
00000300: 14cc dabd 3afe c63d c711 2fbd 1ec0 163d
00000310: c05b fa3b 1374 04be 0afa 0b3e 5a37 b4bd
00000320: c37b bfbd ad5c 1cbd 47d6 dc3d a059 bcbb
00000330: 873e 4dbc 7d6b 72bb 9038 623d b869 26bd
00000340: e531 c33d 1f98 fb3d 70ff 5cbc 1c66 153d
00000350: dbf1 8dbc 11b8 1b3d d4b6 b6bd 95d1 653d
00000360: f677 183d 7d86 e3bd 4eae 46bd 32f0 983d
00000370: 684d 9ebd 0d44 0c3e 2c1e 6dbd 23b2 00be
00000380: b081 c43d 0684 e8bd 5e64 eebd 00e5 a1bb
00000390: 8853 0bbd 5805 22bd bbdb 003e 06fc 87bc
000003a0: d6bc 7cbd 3e56 dabd 2931 aabd a77a ff3d
000003b0: 647c 123d 8a79 39bd 145a 263d d2e0 84bc
000003c0: 4b20 0c3e e31c 233d db45 bbbd 7f41 333d
000003d0: 1d66 b13d b077 d5bd 2acd 03be f9ac 7b3d
000003e0: b2f1 f43d 627b 9a3d 812a d9bc e577 973c
000003f0: eddd f63d f9c2 d63d 979d 39bd 1855 64bd

net1.layer1.2.weight f4 [32]
1.0020174 0.9974272 1.0022945 1.0051888 0.99891794 1.0067528 1.0096898 1.0010073
0.99302036 0.9978472 0.99863845 0.9963726 1.00198 1.0014765 0.99658805 0.9978393
0.99746454 1.0050676 1.002299 1.0075101 1.0050867 0.9949212 0.9965198 0.99959505
1.0003405 0.99698716 0.9916965 0.9967768 1.0032048 1.0002074 1.0021597 0.9951415
00000000: 1b42 803f 6457 7f3f 304b 803f 07aa 803f
00000010: 16b9 7f3f 47dd 803f 843d 813f 0221 803f
00000020: 9536 7e3f ea72 7f3f c5a6 7f3f 4612 7f3f
00000030: e140 803f 6230 803f 6520 7f3f 6572 7f3f
00000040: d659 7f3f 0ea6 803f 554b 803f 17f6 803f
00000050: aea6 803f 28b3 7e3f ec1b 7f3f 76e5 7f3f
00000060: 280b 803f 8d3a 7f3f d2df 7d3f c42c 7f3f
00000070: 0469 803f cc06 803f c546 803f 98c1 7e3f

net1.layer1.2.bias f4 [32]
-0.0015914345 -0.0026258903 -0.008727165 -0.0033435037 -0.012884577 -0.0052585164 -0.003996622 -0.006413302
-0.0049547837 -0.0062290193 0.0066366936 0.008536752 -0.0036208455 -0.0036607345 -0.0020887377 0.0011785922
-0.0042610173 -0.006207792 0.0017971783 -0.007276428 -0.016536092 -0.0022388678 -0.003922289 -0.0014264772
-0.0017175878 -0.0005269939 0.0044929977 0.0018531187 -0.012229411 -0.0049269306 0.0013712407 -0.0043823593
00000000: ae97 d0ba 2117 2cbb 62fc 0ebc af1e 5bbb
00000010: d519 53bc a24f acbb 18f6 82bb ad26 d2bb
00000020: bd5b a2bb cd1c ccbb 9f78 d93b bcdd 0b3c
00000030: b54b 6dbb efe8 6fbb 34e3 08bb fe7a 9a3a
00000040: 01a0 8bbb bc6a cbbb 4c8f eb3a 1a6f eebb
00000050: b376 87bc f8b9 12bb 8b86 80bb a2f8 baba
00000060: af20 e1ba f625 0aba ff39 933b 58e4 f23a
00000070: de5d 48bc 1772 a1bb 34bb b33a e599 8fbb

net1.layer1.2.running_mean f4 [32]
0.00093923166 0.00082095404 0.00097087544 0.0012145418 0.0010669047 0.0011365211 0.0011299762 0.0009635096
0.0011872513 0.0011992535 0.0010608748 0.0009264528 0.0010190922 0.0013591471 0.0005418143 0.0011482644
0.00076110224 0.0007139496 0.0014465477 0.0014629982 0.0005865615 0.0004714537 0.0012427882 0.0011828791
0.0006823017 0.0010485325 0.0010605879 0.00042032677 0.0014136154 0.001181076 0.0006932725 0.0011794145
00000000: c536 763a 4b35 573a 5982 7e3a 4331 9f3a
00000010: 62d7 8b3a 52f7 943a b61b 943a 0994 7c3a
00000020: 8b9d 9b3a 4530 9d3a 0d0d 8b3a 32dd 723a
00000030: 0f93 853a 6925 b23a 8b08 0e3a 5c81 963a
00000040: b584 473a 5928 3b3a 169a bd3a 13c2 bf3a
00000050: 7ac3 193a 722d f739 0de5 a23a d60a 9b3a
00000060: 7edc 323a ea6e 893a 6d03 8b3a 4e5f dc39
00000070: 1049 b93a 56ce 9a3a bbbc 353a 9596 9a3a

net1.layer1.2.running_var f4 [32]
3.4337307e-05 2.3489694e-05 2.3878989e-05 5.0848135e-05 3.119305e-05 4.382459e-05 5.458764e-05 3.123834e-05
4.2260202e-05 4.4142012e-05 3.4586647e-05 3.2439122e-05 3.882979e-05 5.0129136e-05 1.5030698e-05 3.215475e-05
2.3392684e-05 2.2853856e-05 6.211043e-05 6.0397397e-05 1.61468e-05 9.212325e-06 4.046178e-05 3.9055052e-05
1.7695751e-05 3.6144316e-05 2.724997e-05 1.023653e-05 5.1325536e-05 3.8292845e-05 1.7852632e-05 6.032608e-05
00000000: 6705 1038 bc0b c537 bd4f c837 c545 5538
00000010: 48d5 0238 4cd0 3738 08f5 6438 ea05 0338
00000020: 8c40 3138 2025 3938 2111 1138 3e0f 0838
00000030: 2bdd 2238 c041 5238 5b2c 7c37 e6dd 0638
00000040: 683b c437 48b6 bf37 4841 8238 3653 7d38
00000050: fd72 8737 a28e 1a37 81b5 2938 0bcf 2338
00000060: 5671 9437 aa99 1738 dd96 e437 90bd 2b37
00000070: 6046 5738 a19c 2038 3cc2 9537 a306 7d38

net1.layer2.0.weight f4 [64, 32, 3]
-0.0263539 -0.040376667 -0.073721536 0.02840991 -0.010212608 0.040776823 0.02033524 -0.07767364
0.026785674 -0.07726809 0.038461085 0.09088553 0.07822871 -0.060606785 0.020219084 0.037018012
-0.07552605 0.09981651 -0.09030028 0.018761769 0.046164952 -0.093088485 0.022424843 -0.02804825
-0.016403992 0.08570441 0.048890788 0.06407497 -0.07930018 -0.0038811562 -0.037666302 0.011224275
-0.028982868 0.08996314 0.09041365 -0.08405225 0.02771504 0.08310064 -0.07362043 0.04314711
0.08299472 -0.06083748 0.08391306 -0.060810003 0.07376695 -0.031456146 0.028205212 -0.101919256
-0.06643665 -0.056967944 0.0011307304 0.0773069 -0.06630544 -0.02622239 0.04432104 -0.049411003
-0.06078484 0.029341783 -0.10109869 -0.07443684 0.05782124 0.0846472 0.009127935 0.025940735
-0.03708034 0.046572246 -0.10064344 0.0995188 -0.009920923 0.08290114 0.10050878 0.019554993
0.052993227 -0.06610388 0.011484014 0.07376238 0.013511021 -0.02016478 0.06766169 0.04419527
0.041281167 -0.027480192 0.10035205 0.0078011975 -0.08814772 0.05804683 0.048708167 -0.04504971
0.04356185 0.022735424 -0.0075254375 -0.06436286 0.06406691 -0.039872054 0.096407466 -0.07860034
0.0653099 -0.0033888228 0.07016535 0.0037245962 0.10102381 0.0033322615 0.09759479 0.043571625
-0.056163352 0.055603713 0.015974268 0.039403554 0.07444069 -0.08618328 -0.05751277 0.025056208
0.0759454 0.008042279 -0.09148602 0.09309979 -0.047993217 -0.08154756 -0.035927944 0.004196065
0.079758145 0.07787741 -0.023624726 0.057279672 -0.0031652967 0.0059967753 -0.07641103 -0.06448747
-0.05932267 -0.06781421 0.08702085 0.03700705 0.00062818173 -0.055768415 -0.10177143 0.06226782
0.022152064 0.032221787 -0.08079138 0.07090412 -0.05150524 0.03947091 0.012143304 0.07214304
0.011593506 -0.063550405 0.0031920215 -0.064936444 -0.051037095 -0.07750822 -0.04256025 -0.0453899
-0.081162475 -0.019251777 0.04335097 0.058491785 -0.049522694 -0.0072454796 0.06498776 -0.07737687
-0.06814566 -0.073226616 -0.05272663 0.06444784 -0.058774017 -0.06610654 0.059122577 -0.095370136
0.02826325 -0.019584665 -0.088253245 -0.0648138 0.02334907 0.0783761 0.051306404 0.042166866
-0.04340207 -0.03309756 0.062068235 -0.033365045 -0.084538996 0.029096898 -0.005943027 0.058689907
0.06918575 0.086371586 -0.0072124363 -0.04446865 0.03844111 -0.014207937 0.057529747 -0.08008199
-0.059730064 -0.011734765 -0.07712218 -0.02399392 0.0082626855 -0.025100708 0.041619133 -0.08960518
-0.01955102 -0.06726565 -0.043379504 0.014926883 -0.04816752 0.061768215 -0.0006089303 0.057653777
-0.01835001 0.031394083 0.090091065 0.060355835 0.06969889 -0.03766507 0.102771565 0.07582227
0.022164611 0.047714245 0.06445899 0.017968493 0.016001198 0.061764054 -0.09029739 -0.025080279
-0.042888295 0.0967372 0.0884272 0.088764794 0.0940833 -0.06782383 -0.025788752 -0.0065090023
-0.052330934 -0.04091491 0.0602622 0.023492347 0.09163432 0.07213403 0.008933183 -0.06048853
-0.09259795 -0.04341867 0.0980133 0.072482206 0.09795668 0.092370555 0.055494893 -0.09556745
-0.030721383 -0.028692054 0.050972097 0.0010398243 -0.042772166 -0.055774316 -0.094516486 -0.065379
00000000: 22e4 d7bc 0162 25bd 51fb 96bd e6bb e83c
00000010: c852 27bc 9905 273d 1796 a63c 5b13 9fbd
00000020: a16d db3c bb3e 9ebd 5f89 1d3d 3122 ba3d
00000030: 6036 a03d d23e 78bd 7ea2 a53c 33a0 173d
00000040: 67ad 9abd 996c cc3d 5aef b8bd 48b2 993c
00000050: 7617 3d3d 2da5 bebd 4eb4 b73c 72c5 e5bc
00000060: aa61 86bc cb85 af3d b541 483d bd39 833d
00000070: 2268 a2bd ff5a 7ebb fb47 1abd 06e6 373c
00000080: 7b6d edbc 983e b83d cb2a b93d 9623 acbd
00000090: a70a e33c ab30 aa3d 4fc6 96bd 06bb 303d
000000a0: 23f9 a93d b930 79bd 9cda ab3d e913 79bd
000000b0: 2013 973d 29d8 00bd 9e0e e73c 0bbb d0bd
000000c0: f00f 88bd 3857 69bd 0435 943a 1453 9e3d
000000d0: 26cb 87bd 56d0 d6bc fb89 353d 3163 4abd
000000e0: 86f9 78bd 2e5e f03c d40c cfbd 5872 98bd
000000f0: f7d5 6c3d 835b ad3d 568d 153c aa81 d43c
00000100: 8ee1 17bd 8ac2 3e3d 261e cebd 83d0 cb3d
00000110: 5e8b 22bc 13c8 a93d 8cd7 cd3d cb31 a03c
00000120: 6d0f 593d 7961 87bd 7227 3c3c bb10 973d
00000130: 545d 5d3c 9c30 a5bc 3692 8a3d 1906 353d
00000140: 7116 293d 241e e1bc 6085 cd3d 30a1 ff3b
00000150: cb86 b4bd 83c2 6d3d 3782 473d 0b86 38bd
00000160: e96d 323d a43f ba3c f297 f6bb add0 83bd
00000170: 8335 833d e150 23bd 4771 c53d 37f9 a0bd
00000180: 32c1 853d 0317 5ebb dab2 8f3d 5b18 743b
00000190: 92e5 ce3d 1262 5a3b c7df c73d 2978 323d
000001a0: 8b0b 66bd b8c0 633d 78dc 823c 9f65 213d
000001b0: 5c74 983d dc80 b0bd 8392 6bbd ad42 cd3c
000001c0: 4389 9b3d c3c3 033c 065d bbbd 1aab be3d
000001d0: 8994 44bd 6802 a7bd 2e29 13bd 257f 893b
000001e0: 3d58 a33d 317e 9f3d a488 c1bc 179e 6a3d
000001f0: de70 4fbb 9980 c43b 637d 9cbd 0212 84bd
00000200: 54fc 72bd 2de2 8abd fd37 b23d b494 173d
00000210: 90ac 243a 6c6d 64bd 8a6d d0bd 8b0c 7f3d
00000220: 3f78 b53c fefa 033d f375 a5bd 2e36 913d
00000230: 29f7 52bd 40ac 213d b5f4 463c bbbf 933d
00000240: b0f2 3d3c b726 82bd 3c31 513b 66fd 84bd
00000250: 460c 51bd a1bc 9ebd a853 2ebd c3ea 39bd
00000260: 8338 a6bd e7b5 9dbc c990 313d 1595 6f3d
00000270: 4fd8 4abd 7d6b edbb 4d18 853d c477 9ebd
00000280: f48f 8bbd d6f7 95bd e1f7 57bd 3bfd 833d
00000290: 06bd 70bd de62 87bd 842a 723d 6b51 c3bd
000002a0: 5588 e73c 0570 a0bc 1ebe b4bd 19bd 84bd
000002b0: 8d46 bf3c a683 a03d aa26 523d 2ab7 2c3d
000002c0: 5ec6 31bd 4f91 07bd 433b 7e3d c9a9 08bd
000002d0: c822 adbd 9e5c ee3c b9bd c2bb d464 703d
000002e0: 42b1 8d3d 96e3 b03d 4d56 ecbb c224 36bd
000002f0: 6d74 1d3d 68c8 68bc 50a4 6b3d 0702 a4bd
00000300: 83a7 74bd 2c43 40bc 3cf2 9dbd e68e c4bc
00000310: 3760 073c 00a0 cdbc d378 2a3d ec82 b7bd
00000320: 7629 a0bc 93c2 89bd b5ae 31bd e38f 743c
00000330: 4e4b 45bd ab00 7d3d 9fa0 1fba 5e26 6c3d
00000340: c352 96bc 1597 003d aa81 b83d ae37 773d
00000350: 4bbe 8e3d b046 1abd e679 d23d b548 9b3d
00000360: 8f92 b53c 0370 433d 1303 843d a932 933c
00000370: f214 833c 4efc 7c3d d7ed b8bd 2875 cdbc
00000380: a3ab 2fbd 271e c63d 5219 b53d 51ca b53d
00000390: bfae c03d 38e7 8abd ef42 d3bc 7849 d5bb
000003a0: f658 56bd 6596 27bd 7fd5 763d 0673 c03c
000003b0: c6aa bb3d 02bb 933d 7c5c 123c d2c2 77bd
000003c0: fea3 bdbd c6d7 31bd 32bb c83d 8d71 943d
000003d0: 839d c83d c62c bd3d 9d4e 633d deb8 c3bd
000003e0: 69ab fbbc 990b ebbc 1ec8 503d b74a 883a
000003f0: de31 2fbd 9c73 64bd dc91 c1bd 6de5 85bd

net1.layer2.2.weight f4 [64]
1.0015743 0.9994389 1.003828 0.99807805 0.99430263 1.0021579 0.99976367 1.0041145
1.0005723 0.99614614 1.0027378 1.0033665 0.9999727 1.0018531 1.0003163 1.0022175
0.99496186 0.9993019 1.0066488 1.0031502 1.0026433 1.0032724 0.99844676 0.9999086
0.99949944 1.0037326 1.0006554 1.0014813 0.99640137 0.9963913 1.005655 0.999563
1.0021775 0.99961483 1.0001297 1.0000494 1.0036021 0.9995031 1.0024543 1.0006884
1.0001884 0.9851906 0.9993311 1.0046979 1.0018646 1.0004766 0.99912536 1.0009242
0.99801105 1.0033634 1.0014027 1.0015898 0.99781376 0.9978461 1.0016588 1.0010631
1.0008621 0.99895334 0.999679 0.99960804 1.0019895 1.0016603 1.0027204 0.99606454
00000000: 9633 803f 3adb 7f3f 707d 803f 0b82 7f3f
00000010: 9e8a 7e3f b646 803f 83f0 7f3f d386 803f
00000020: c112 803f 6f03 7f3f b659 803f 506e 803f
00000030: 36fe 7f3f b93c 803f 5d0a 803f aa48 803f
00000040: d2b5 7e3f 40d2 7f3f ded9 803f 3a67 803f
00000050: 9e56 803f 3b6b 803f 359a 7f3f 03fa 7f3f
00000060: 32df 7f3f 4f7a 803f 7a15 803f 8a30 803f
00000070: 2914 7f3f 8013 7f3f 4eb9 803f 5ce3 7f3f
00000080: 5a47 803f c2e6 7f3f 4004 803f 9e01 803f
00000090: 0976 803f 6fdf 7f3f 6c50 803f 8f16 803f
000000a0: 2c06 803f 7335 7c3f 2ad4 7f3f f199 803f
000000b0: 193d 803f 9e0f 803f aec6 7f3f 491e 803f
000000c0: a77d 7f3f 366e 803f f72d 803f 1834 803f
000000d0: b970 7f3f d872 7f3f 5b36 803f d622 803f
000000e0: 401c 803f 68bb 7f3f f7ea 7f3f 50e6 7f3f
000000f0: 3141 803f 6836 803f 2459 803f 16fe 7e3f

net1.layer2.2.bias f4 [64]
0.0015617434 0.00029779391 -0.0036250954 0.0037740604 0.0031101094 -0.0030165073 0.0034351347 -0.0064670015
0.0040688156 0.007665578 -0.009044915 0.0015576063 2.6707952e-05 0.0026835639 -0.0036915683 0.0001431378
0.0024855079 -0.0025803163 0.0035472417 -0.0055012256 0.0033536984 -0.001845045 -0.00022774187 -0.002871723
0.0016194289 -0.0072407057 -0.0034489965 -0.0013318097 -0.001039754 0.0084036775 -0.008090164 -0.0014747377
0.002150201 5.75783e-05 0.0011252199 -0.0010909209 -0.00055505225 0.00078265235 -0.00046794998 0.005768381
-3.218566e-05 0.002406928 0.00057788205 0.00056108105 0.00022954078 -0.004652792 0.0019901083 -0.0031913235
-0.0032759767 -0.00027765025 0.0041839206 -0.00091108266 -0.005550906 0.004456935 -0.0007962023 -0.00067895243
-0.0061323503 -0.002448509 0.007932958 -0.0013682797 -0.0017004387 -0.0015491145 -0.010182177 0.00048236304
00000000: 6ab3 cc3a 3921 9c39 0293 6dbb 3a56 773b
00000010: fad2 4b3b 98b0 45bb ff1f 613b 24e9 d3bb
00000020: b353 853b 872f fb3b 2031 14bc 9828 cc3a
00000030: e40a e037 bbde 2f3b 3dee 71bb 4317 1639
00000040: e7e3 223b 861a 29bb d778 683b a043 b4bb
00000050: b9c9 5b3b 70d5 f1ba fecd 6eb9 8433 3cbb
00000060: 0443 d43a 7143 edbb 8f08 62bb 1e90 aeba
00000070: 5b48 88ba 94af 093c 9b8c 04bc fc4b c1ba
00000080: 63ea 0c3b 3b80 7138 1d7c 933a 3bfd 8eba
00000090: ed80 11ba e92a 4d3a 2f57 f5b9 b004 bd3b
000000a0: 17ff 06b8 8dbd 1d3b 027d 173a 8315 133a
000000b0: e2b0 7039 7376 98bb 7a6c 023b 8625 51bb
000000c0: c5b1 56bb 9691 91b9 4519 893b b9d5 6eba
000000d0: 60e4 b5bb 7b0b 923b 3bb8 50ba bafb 31ba
000000e0: e2f1 c8bb 2a77 20bb 3df9 013c d957 b3ba
000000f0: 41e1 deba a80b cbba 25d3 26bc ace5 fc39

net1.layer2.2.running_mean f4 [64]
0.06326672 0.05172277 0.070154496 0.06428206 0.05206837 0.07006496 0.057093915 0.05507244
0.046198502 0.035543676 0.07757102 0.059143715 0.07429364 0.05776274 0.101081744 0.048333146
0.09260121 0.051940836 0.05600641 0.06288652 0.050744068 0.072818145 0.08195952 0.06177029
0.043375265 0.059000064 0.10797648 0.072458684 0.057091244 0.084978126 0.14817132 0.059470396
0.055896066 0.063756295 0.04020965 0.07656607 0.053591087 0.054306265 0.061251443 0.07556459
0.096853666 0.08432431 0.058632214 0.06275354 0.05632736 0.065540396 0.04952689 0.09923328
0.11509167 0.043987993 0.055663507 0.049785335 0.06335307 0.07304018 0.048836738 0.079026364
0.053663656 0.06436119 0.05353958 0.044959456 0.05958522 0.06561067 0.075191125 0.070737146
00000000: fb91 813d 41db 533d 29ad 8f3d 50a6 833d
00000010: a545 553d 387e 8f3d 4fdb 693d a493 613d
00000020: a43a 3d3d 3f96 113d 8edd 9e3d ae40 723d
00000030: 4427 983d 9f98 6c3d f203 cf3d faf8 453d
00000040: b4a5 bd3d eabf 543d fa66 653d a6ca 803d
00000050: 03d9 4f3d ae21 953d 65da a73d d802 7d3d
00000060: 43aa 313d 0daa 713d c622 dd3d 3865 943d
00000070: 82d8 693d 0309 ae3d 39ba 173e 3b97 733d
00000080: 46f3 643d a992 823d e0b2 243d acce 9c3d
00000090: 5482 5b3d 3f70 5e3d cbe2 7a3d 9cc1 9a3d
000000a0: 375b c63d 39b2 ac3d 5528 703d ee84 803d
000000b0: 85b7 663d 0b3a 863d b5dc 4a3d d13a cb3d
000000c0: 2eb5 eb3d c12c 343d 6bff 633d b5eb 4b3d
000000d0: 41bf 813d 1796 953d 0809 483d 93d8 a13d
000000e0: 6cce 5b3d cdcf 833d 524c 5b3d 6827 383d
000000f0: a20f 743d e35e 863d cefd 993d a3de 903d

net1.layer2.2.running_var f4 [64]
0.08489219 0.061161928 0.098410934 0.040294126 0.021332571 0.046268497 0.065914355 0.07551473
0.0571351 0.02687669 0.13876459 0.029952036 0.12688948 0.02562817 0.16737936 0.056588814
0.16939366 0.058437742 0.03385662 0.08780487 0.063317165 0.10056456 0.15081474 0.08035289
0.026451526 0.07936293 0.19655553 0.10853043 0.07223698 0.017053582 0.41467646 0.09568898
0.026645878 0.04285757 0.038624994 0.12011961 0.054418925 0.057666104 0.07997471 0.052939545
0.19882122 0.019488592 0.07734433 0.04073895 0.0722122 0.08861303 0.061188705 0.18772073
0.22400524 0.038196817 0.023300782 0.050817158 0.025774915 0.11073138 0.030374372 0.13143747
0.0541323 0.0122930845 0.07672511 0.037914895 0.074418575 0.08583153 0.13321535 0.124181956
00000000: f5db ad3d ee84 7a3d ac8b c93d 740b 253d
00000010: a5c1 ae3c 0984 3d3d 1bfe 863d 77a7 9a3d
00000020: 7f06 6a3d 812c dc3c 4e18 0e3e f95d f53c
00000030: 51ef 013e 2bf2 d13c 7f65 2b3e acc9 673d
00000040: 8875 2d3e 6a5c 6f3d 3dad 0a3d 0ad3 b33d
00000050: 6eac 813d cbf4 cd3d 2e6f 1a3e 0e90 a43d
00000060: dfb0 d83c 0889 a23d da45 493e 3445 de3d
00000070: fbf0 933d f4b3 8b3c 7950 d43e 95f8 c33d
00000080: 7548 da3c 6b8b 2f3d 3e35 1e3d 4501 f63d
00000090: 61e6 5e3d 4b33 6c3d c8c9 a33d 23d7 583d
000000a0: ca97 4b3e 8aa6 9f3c b466 9e3d e3dd 263d
000000b0: fde3 933d c07a b53d 02a1 7a3d dd39 403e
000000c0: a161 653e 4474 1c3d 48e1 be3c a725 503d
000000d0: ea25 d33c 22c7 e23d add3 f83c 8b97 063e
000000e0: d5b9 5d3d ef68 493c 0e22 9d3d a64c 1b3d
000000f0: c468 983d 71c8 af3d 9b69 083e 1c53 fe3d

net1.layer3.0.weight f4 [128, 64, 3]
-0.005403287 -0.06595837 -0.045158125 0.058988083 0.04114667 -0.065150045 0.01840066 -0.061060194
0.02174521 0.07018195 0.013849632 -0.03556776 0.05039633 -0.010554135 0.05108612 -0.058614746
0.045008175 0.058839813 -0.0681731 0.008996751 -0.040501487 -0.017645352 0.06559723 0.0023950269
0.042100493 0.026712976 0.0046687922 0.062414486 -0.037683427 0.069407284 -0.016293593 -0.04240257
-0.05914259 0.056105375 0.00050151756 0.04454978 0.040507726 0.011418678 0.057615682 0.023218825
0.050171465 -0.078344956 -0.050767772 -0.0014968413 0.0761656 -0.021194724 -0.04605514 0.014226802
-0.038144365 0.053585794 -0.00029697796 0.05197172 -0.029899755 -0.053871203 -0.010717358 -0.013714119
0.058499858 -0.06565774 -0.04134855 0.0060222764 0.04785487 -0.051256772 0.024488831 -0.056828182
0.030676024 -0.05632394 -0.028387155 -0.037471026 0.010641023 -0.0063409437 -0.041514214 -0.040572595
0.0037080604 0.042637885 -0.06637172 -0.020806069 -0.05961244 -0.02304122 -0.029475288 0.017169753
-0.009743452 -0.04474541 -0.027187094 0.039591186 -0.0024816587 -0.021020085 -0.054765053 0.03287292
-0.027473805 0.05874069 -0.04525459 -0.06321894 -0.009689462 0.010347786 0.065496355 0.020495832
-0.06756665 -0.061515003 0.032877665 0.05866465 -0.069444664 0.00027495492 -0.049458493 0.0053594583
-0.025195148 -0.007951198 0.03133021 0.071319565 0.055551298 0.0657979 0.024707524 0.009170516
0.05526831 -0.042549375 0.03852545 0.026299112 0.012312834 -0.03581727 -0.05421776 -0.011844697
-0.01911785 0.0158409 0.054088976 -0.010935797 0.05537701 0.00047186078 -0.055825964 0.03029113
0.0017325016 0.048416067 -0.043447394 -0.023248566 0.048998356 -0.060642067 -0.010934463 0.030469686
-0.029634306 -0.010733367 -0.037634436 -0.040792305 -0.04577179 -0.062017843 0.015737308 0.0002657312
-0.06408361 0.03479639 0.038772736 -0.049235977 -0.013881591 0.059501424 -0.06375053 -0.056342278
-0.056535684 -0.051246017 -0.06627434 0.07539916 -0.01859971 -0.06565856 0.025984423 0.0024097527
-0.06957285 -0.052708566 0.041678876 -0.046113525 0.020257251 0.010365066 -0.0028807954 0.048300903
0.077340096 0.009655519 -0.038113236 0.050201602 0.041951653 0.033623464 0.063853316 -0.035603844
-0.058088344 -0.037351683 0.059991878 0.01950834 -0.0031508692 -0.051767766 0.04979984 0.018509107
0.0496875 -0.05266237 -0.055619787 -0.016380439 -0.02276776 0.0037681784 -0.05551295 -0.057666387
-0.05129342 -0.03523602 -0.0026148197 -0.02969576 -0.055249427 0.028342165 0.037423037 -0.0305871
0.015937923 -0.055722777 -0.04952183 -0.02113654 -0.0114903245 -0.024085157 0.023460004 0.074039556
-0.04299204 0.039350413 0.035073902 -0.032098662 0.031808484 -0.069916636 -0.07104571 -0.052639537
-0.026638627 0.0441005 -0.011593294 0.05092778 0.000505778 -0.021268386 0.06549599 0.039799564
-0.04069822 -0.027212141 0.061615434 0.022168351 0.0793219 0.057627197 0.06362604 -0.0454162
0.008318053 0.034802437 -0.02386738 -0.056404166 -0.04084947 -0.06561228 -0.0115890065 0.027955834
-0.050938357 -0.006985033 -0.015866397 -0.06958489 -0.04804617 -0.07076403 0.054133818 -0.04574364
0.06699411 0.04238099 -0.021257447 -0.021079682 0.019894151 0.058138866 0.05502071 0.062002156
00000000: 0e0e b1bb 2f15 87bd baf7 38bd 7d9d 713d
00000010: 6989 283d 636d 85bd fbbc 963c 411a 7abd
00000020: 0323 b23c 8ebb 8f3d 91e9 623c 80af 11bd
00000030: 626c 4e3d 40eb 2cbc ae3f 513d 0416 70bd
00000040: 7e5a 383d 0402 713d 579e 8bbd 1c67 133c
00000050: e3e4 25bd fc8c 90bc d757 863d e2f5 1c3b
00000060: 9171 2c3d 2cd5 da3c abfc 983b 55a6 7f3d
00000070: f059 1abd 6825 8e3d 247a 85bc 51ae 2dbd
00000080: 803f 72bd c0ce 653d 4678 033a d579 363d
00000090: 6eeb 253d 6815 3b3c 6cfe 6b3d 6835 be3c
000000a0: 9880 4d3d 5273 a0bd def1 4fbd a931 c4ba
000000b0: b6fc 9b3d 8fa0 adbc 51a4 3cbd 8817 693c
000000c0: 443d 1cbd c77c 5b3d b5b3 9bb9 4ce0 543d
000000d0: 55f0 f4bc 0da8 5cbd dc97 2fbc 2fb1 60bc
000000e0: 8c9d 6f3d 9177 86bd 195d 29bd 8456 c53b
000000f0: 7803 443d 9ff2 51bd cd9c c83c abc4 68bd
00000100: 494c fb3c efb3 66bd 2e8c e8bc 387b 19bd
00000110: af57 2e3c b1c7 cfbb cf0a 2abd 732f 26bd
00000120: ee02 733b 10a5 2e3d e5ed 87bd 7d71 aabc
00000130: 2d2c 74bd f1c0 bcbc 2976 f1bc 95a7 8c3c
00000140: 00a3 1fbc f746 37bd 78b7 debc 5e2a 223d
00000150: 53a3 22bb 5032 acbc 5251 60bd c1a5 063d
00000160: bf10 e1bc 149a 703d e15c 39bd ee78 81bd
00000170: 8dc0 1ebc c389 293c f422 863d e0e6 a73c
00000180: 6260 8abd 28f7 7bbd bbaa 063d 584a 703d
00000190: 0139 8ebd d327 9039 fd94 4abd 659e af3b
000001a0: 0e66 cebc be45 02bc 1b54 003d fe0f 923d
000001b0: c289 633d 0dc1 863d 6f67 ca3c ef3f 163c
000001c0: 0661 623d 4148 2ebd ddcc 1d3d 3c71 d73c
000001d0: c5bb 493c 21b5 12bd 7113 5ebd 4310 42bc
000001e0: 0a9d 9cbc c6c4 813c 678c 5d3d 0f2c 33bc
000001f0: 01d3 623d 1564 f739 c4a9 64bd 1b25 f83c
00000200: 1b15 e33a ed4f 463d e5f5 31bd c773 bebc
00000210: 80b2 483d d163 78bd 7626 33bc 909b f93c
00000220: a5c3 f2bc 01db 2fbc 9126 1abd d515 27bd
00000230: 337b 3bbd 6c06 7ebd 87eb 803c d751 8b39
00000240: 453e 83bd a986 0e3d 29d0 1e3d aaab 49bd
00000250: 9d6f 63bc c4b7 733d a38f 82bd 29c7 66bd
00000260: f691 67bd 58e7 51bd d7ba 87bd e06a 9a3d
00000270: 6b5e 98bc ff77 86bd 49dd d43c f1ec 1d3b
00000280: 367c 8ebd f0e4 57bd 78b7 2a3d 89e1 3cbd
00000290: 89f2 a53c 3dd2 293c bacb 3cbb 2bd7 453d
000002a0: 7c64 9e3d 2f32 1e3c a01c 1cbd 32a0 4d3d
000002b0: 7fd5 2b3d c2b8 093d 87c5 823d 56d5 11bd
000002c0: 0bee 6dbd 14fe 18bd 0bba 753d f4cf 9f3c
000002d0: d07e 4ebb 700a 54bd ebfa 4b3d 69a0 973c
000002e0: 1f85 4b3d 7fb4 57bd 93d1 63bd 4530 86bc
000002f0: 7483 babc 8bf3 763b 8c61 63bd 9733 6cbd
00000300: 0d19 52bd a553 10bd 655d 2bbb 8644 f3bc
00000310: 394d 62bd d42d e83c e648 193d cc91 fabc
00000320: 3f90 823c 913d 64bd 67d7 4abd 8a26 adbc
00000330: ea41 3cbc 3c4e c5bc 322f c03c 0da2 973d
00000340: 6c18 30bd e62d 213d a7a9 0f3d e379 03bd
00000350: 9d49 023d 7430 8fbd 6a80 91bd 8e9c 57bd
00000360: 4039 dabc baa2 343d cdf1 3dbc a699 503d
00000370: 3096 043a 0a3b aebc c322 863d de04 233d
00000380: 2db3 26bd ffeb debc 7760 7c3d 679a b53c
00000390: 8573 a23d 7f0a 6c3d 5f4e 823d 5606 3abd
000003a0: 7148 083c 008d 0e3d 8685 c3bc 0e08 67bd
000003b0: c651 27bd bb5f 86bd d1df 3dbc a203 e53c
000003c0: bda4 50bd b4e2 e4bb 3ffa 81bc 8682 8ebd
000003d0: 10cc 44bd bbec 90bd 6cbb 5d3d af5d 3bbd
000003e0: 3534 893d b097 2d3d 1924 aebc 4caf acbc
000003f0: 0ff9 a23c 0523 6e3d 655d 613d f9f5 7d3d

net1.layer3.2.weight f4 [128]
0.9914661 0.9972494 1.00099 1.001386 1.0010787 0.99971753 1.000174 0.99949914
0.99982446 1.0026517 0.99859166 0.99881434 0.9998028 0.9959779 1.00075 0.9984598
1.0007664 1.0028144 1.0008547 1.000082 1.0014162 0.9991864 1.0005949 1.0009716
1.0007282 0.9999074 0.99976236 1.001969 1.0013288 1.0003204 0.9990104 0.99962574
0.99969923 0.999562 1.0005144 1.0003372 1.0010735 0.9984368 1.0015801 0.9948198
1.0001051 1.0018474 1.0009133 0.9944855 0.9994239 0.9996159 0.9968597 1.000817
1.0008152 1.0002018 1.0005157 1.0015715 0.99974656 1.0012611 1.0008665 0.9975405
0.99996054 0.9964291 1.0016862 0.9991934 1.0007194 0.9986321 1.0003617 1.0005323
1.0014122 0.9992938 0.9994826 1.0023062 1.0004506 0.99993473 0.99957234 1.0000293
1.0000247 1.001103 1.0012288 1.0001897 1.0003726 0.99835396 1.0016373 0.99944854
1.001909 1.0014046 0.99883074 0.99751663 1.0012897 1.0014404 1.0003755 1.001586
0.99994546 0.9987836 0.997708 0.9981871 1.0011746 1.001677 1.0007786 0.9995866
0.9996699 0.99759525 1.000748 0.99832505 0.9983724 0.9994051 0.9991696 0.9999777
1.0009881 0.99703 1.0002351 1.0017244 0.9993254 0.99870396 1.0002203 0.9981674
1.0002445 0.9940118 0.9981588 0.9999394 0.997246 0.99844784 1.0001627 1.0002935
1.0006244 1.0007685 0.99991935 0.99770993 1.0005664 0.99945956 1.0012876 0.99912786
00000000: b9d0 7d3f bd4b 7f3f 7120 803f 6b2d 803f
00000010: 5923 803f 7ded 7f3f b405 803f 2ddf 7f3f
00000020: 7ff4 7f3f e456 803f b4a3 7f3f 4cb2 7f3f
00000030: 14f3 7f3f 68f8 7e3f 9318 803f 109b 7f3f
00000040: 1d19 803f 395c 803f 021c 803f b002 803f
00000050: 682e 803f aeca 7f3f 7e13 803f d61f 803f
00000060: dd17 803f eef9 7f3f 6df0 7f3f 8540 803f
00000070: 8b2b 803f 800a 803f 25bf 7f3f 79e7 7f3f
00000080: 4aec 7f3f 4ce3 7f3f db10 803f 0d0b 803f
00000090: 2d23 803f 8e99 7f3f c733 803f 83ac 7e3f
000000a0: 7203 803f 893c 803f ed1d 803f 9a96 7e3f
000000b0: 3fda 7f3f d4e6 7f3f 3332 7f3f c51a 803f
000000c0: b61a 803f 9d06 803f e610 803f 7f33 803f
000000d0: 64ef 7f3f 5329 803f 651c 803f d05e 7f3f
000000e0: 6afd 7f3f fa15 7f3f 4137 803f 23cb 7f3f
000000f0: 9317 803f 5aa6 7f3f da0b 803f 7111 803f
00000100: 462e 803f b8d1 7f3f 17de 7f3f 924b 803f
00000110: c40e 803f b9fb 7f3f f9e3 7f3f f600 803f
00000120: cf00 803f 2524 803f 4428 803f 3706 803f
00000130: 360c 803f 2094 7f3f a735 803f dcdb 7f3f
00000140: 8e3e 803f 072e 803f 5fb3 7f3f 405d 7f3f
00000150: 432a 803f 332f 803f 4e0c 803f f833 803f
00000160: 6dfc 7f3f 48b0 7f3f cb69 7f3f 3189 7f3f
00000170: 7d26 803f f436 803f 8319 803f e8e4 7f3f
00000180: 5eea 7f3f 6762 7f3f 8318 803f 3b92 7f3f
00000190: 5595 7f3f 03d9 7f3f 94c9 7f3f 8afe 7f3f
000001a0: 6120 803f 5c3d 7f3f b407 803f 8138 803f
000001b0: cad3 7f3f 10ab 7f3f 3807 803f e687 7f3f
000001c0: 0308 803f 8f77 7e3f 5687 7f3f 07fc 7f3f
000001d0: 844b 7f3f 479a 7f3f 5505 803f 9e09 803f
000001e0: 7614 803f 2f19 803f b7fa 7f3f eb69 7f3f
000001f0: 8f12 803f 95dc 7f3f 312a 803f d8c6 7f3f

net1.layer3.2.bias f4 [128]
-0.00045416137 0.0024254369 0.00043872595 -0.0028804957 -0.001081392 -0.0036818876 -0.00055243727 -0.00022910477
-0.0038623055 0.00024701376 -0.0035325466 0.0012778157 0.00019210135 0.00078447245 -0.00054092094 -3.465865e-05
-0.0009990507 -0.0040913885 0.00016697345 -0.0013341127 0.002582037 0.00027327385 -0.0005090898 -0.0050229626
-0.00015054221 0.0022902947 0.0068720453 -0.0019451234 -0.004129587 0.0007005088 0.000982276 -0.0029854497
-0.0015108816 -0.000366374 0.0010965689 -0.0025230108 0.0024703033 0.0023777913 -0.0043895706 0.0020542443
-0.0014959804 -0.0046618422 0.00080276834 0.002359637 0.0030915826 -0.0015190314 0.0010746622 -0.0028964905
-0.0023498973 -0.00021460583 -0.0019933786 -0.0033322882 -0.0010709036 -0.0014013835 -0.00011090126 -0.0019782172
0.0045156437 0.0020594762 -0.0031910841 -0.00048254104 -0.0008847075 -4.2704978e-05 0.0023712793 0.0025692126
-0.0032289703 0.0010263788 -0.000506458 -0.0006482713 0.0007179962 -0.0018783397 0.0019918354 0.0017219214
-0.0009886484 -0.0010091458 -0.0027459858 -0.0027146274 0.0014789404 -0.00071532105 -0.0051428406 -0.00010761339
0.0016373664 -0.0015612214 -0.0008212493 0.0028082924 -0.0031114183 -0.0028919436 -0.00088723685 -0.0016110705
0.0014331763 0.003168053 0.0046910397 0.0033848078 -0.0018154547 -0.003946861 0.0014110096 0.0023033437
0.002348528 0.0029973534 -0.0008056589 -0.0027160095 -0.0006093566 0.0020227549 -0.00013644109 0.0017589218
-0.0008489715 0.003053299 -0.00092935737 -0.0052421293 -0.00093321124 -0.0001784411 -0.0014661025 0.001535683
-0.0019366371 0.0008762459 0.000897843 0.0026604442 0.0013632432 0.0012713711 0.00084489177 -0.003349037
0.0020410558 -0.0042724223 -0.0039175022 0.0009393528 -0.0029284237 0.004055622 -0.0021984172 -0.00073498354
00000000: 821c eeb9 14f4 1e3b cd04 e639 b3c6 3cbb
00000010: 7fbd 8dba d34b 71bb 70d1 10ba d83b 70b9
00000020: bc1e 7dbb a081 8139 4c82 67bb 617c a73a
00000030: d06e 4939 0ea5 4d3a 97cc 0dba 715e 11b8
00000040: 94f2 82ba 0e11 86bb 9815 2f39 65dd aeba
00000050: 6437 293b 3246 8f39 7074 05ba aa97 a4bb
00000060: deda 1db9 c518 163b e52e e13b 83f3 feba
00000070: 7d51 87bb 5aa2 373a b7bf 803a 89a7 43bb
00000080: c608 c6ba e315 c0b9 bfba 8f3a 1959 25bb
00000090: d0e4 213b b8d4 1b3b 63d6 8fbb 80a0 063b
000000a0: c614 c4ba 5ec2 98bb df70 523a 24a4 1a3b
000000b0: 269c 4a3b 3c1a c7ba aedb 8c3a 0cd3 3dbb
000000c0: bc00 1abb d007 61b9 58a3 02bb 8562 5abb
000000d0: 905d 8cba a1ae b7ba a993 e8b8 faa4 01bb
000000e0: f7f7 933b 47f8 063b 8221 51bb 90fd fcb9
000000f0: b7eb 67ba 1f1e 33b8 7767 1b3b 3c60 283b
00000100: 229d 53bb 8f87 863a d2c3 04ba c0f0 29ba
00000110: e937 3c3a 9f32 f6ba 7489 023b 18b2 e13a
00000120: 8995 81ba 5045 84ba fff5 33bb e4e7 31bb
00000130: 01d9 c13a 6284 3bba 4685 a8bb 80ae e1b8
00000140: e69c d63a e6a1 ccba 1c49 57ba 540b 383b
00000150: f0e8 4bbb c386 3dbb 7595 68ba 8e2a d3ba
00000160: 6bd9 bb3a 1c9f 4f3b 4bb7 993b a7d3 5d3b
00000170: 8df4 edba ab54 81bb a0f1 b83a b2f3 163b
00000180: c3e9 193b 3f6f 443b db32 53ba 14ff 31bb
00000190: 3bbd 1fba 3290 043b a011 0fb9 9f8b e63a
000001a0: 838d 5eba db19 483b 1ea0 73ba 2bc6 abbb
000001b0: bfa2 74ba eb1b 3bb9 3d2a c0ba f948 c93a
000001c0: c2d6 fdba deb3 653a 395d 6b3a d95a 2e3b
000001d0: daae b23a 23a4 a63a ba7b 5d3a 847b 5bbb
000001e0: 3cc3 053b adff 8bbb 645e 80bb e63e 763a
000001f0: ccea 3fbb 06e5 843b 5213 10bb e9ab 40ba

net1.layer3.2.running_mean f4 [128]
0.15710567 0.12951753 0.16103606 0.07219908 0.13502258 0.091323964 0.099031106 0.10843113
0.10390956 0.099058114 0.078351684 0.10544848 0.08047988 0.07731429 0.07285441 0.09178336
0.08399425 0.10828857 0.08075147 0.08494776 0.09114889 0.17390068 0.08264991 0.20453568
0.09537629 0.074566424 0.082693994 0.0945171 0.1131684 0.15794238 0.11102668 0.08779043
0.14148678 0.082570635 0.085120104 0.07815178 0.08805806 0.06904754 0.10198162 0.18419549
0.07586583 0.08481993 0.15429513 0.21299505 0.07667059 0.10194998 0.111484535 0.12386929
0.0831352 0.11107404 0.11968917 0.11551161 0.08917394 0.10234977 0.091416724 0.16145892
0.08155907 0.11304107 0.08057284 0.14500006 0.08028847 0.085427605 0.07129924 0.105941385
0.09404116 0.1079781 0.09196147 0.10813271 0.09893408 0.085200906 0.08669212 0.10580518
0.07493961 0.10176151 0.14669769 0.11145674 0.097245656 0.08539341 0.1316523 0.0728403
0.118909456 0.090292074 0.1719706 0.113985896 0.114562124 0.1427417 0.19730729 0.10689647
0.104665056 0.10637067 0.10394384 0.12781052 0.0814998 0.114813715 0.072652005 0.08859602
0.11272886 0.08167106 0.083660595 0.17623502 0.078507386 0.09298525 0.08724886 0.12445484
0.10338442 0.14566542 0.14007555 0.12516744 0.06472292 0.11744711 0.09130191 0.10478628
0.10559851 0.082353875 0.18898939 0.08752514 0.08416064 0.095007405 0.10810754 0.1507232
0.08707253 0.1247055 0.0991065 0.10147489 0.0929615 0.077866316 0.13031735 0.10461936
00000000: 4fe0 203e 3ea0 043e a3e6 243e 1cdd 933d
00000010: 5c43 0a3e 0f08 bb3d d2d0 ca3d 2411 de3d
00000020: 89ce d43d fbde ca3d d976 a03d 5ff5 d73d
00000030: a3d2 a43d f456 9e3d b134 953d eaf8 bb3d
00000040: 2d05 ac3d 66c6 dd3d 0761 a53d 17f9 ad3d
00000050: 45ac ba3d 0513 323e 5b44 a93d cd71 513e
00000060: a554 c33d 48b6 983d 785b a93d 2e92 c13d
00000070: d6c4 e73d a6bb 213e f561 e33d 78cb b33d
00000080: e9e1 103e cb1a a93d 7353 ae3d 0a0e a03d
00000090: c957 b43d cc68 8d3d bddb d03d be9d 3c3e
000000a0: 8b5f 9b3d 12b6 ad3d 8bff 1d3e 601b 5a3e
000000b0: 7805 9d3d 27cb d03d 0152 e43d 2faf fd3d
000000c0: ca42 aa3d c97a e33d 981f f53d 5a91 ec3d
000000d0: d4a0 b63d c29c d13d b138 bb3d 7d55 253e
000000e0: 7108 a73d 1482 e73d 6003 a53d e57a 143e
000000f0: 486e a43d abf4 ae3d 5605 923d ccf7 d83d
00000100: a798 c03d 9f23 dd3d 4c56 bc3d af74 dd3d
00000110: f39d ca3d d07d ae3d a38b b13d 63b0 d83d
00000120: f079 993d 5768 d03d eb37 163e 6e43 e43d
00000130: bb28 c73d bde2 ae3d dccf 063e 4c2d 953d
00000140: cd86 f33d 0deb b83d 1019 303e 7071 e93d
00000150: 8c9f ea3d e12a 123e ec0a 4a3e 89ec da3d
00000160: a25a d63d ded8 d93d 82e0 d43d c3e0 023e
00000170: 5ee9 a63d 7423 eb3d 93ca 943d d571 b53d
00000180: 63de e63d 2843 a73d 3f56 ab3d f476 343e
00000190: 7bc8 a03d 0d6f be3d 88af b23d 2ee2 fe3d
000001a0: 36bb d33d 5129 153e f76f 0f3e e52b 003e
000001b0: 738d 843d 1c88 f03d 7ffc ba3d 309a d63d
000001c0: 0844 d83d 26a9 a83d 6f86 413e 6140 b33d
000001d0: 6a5c ac3d 3e93 c23d 7c67 dd3d 2f57 1a3e
000001e0: 1553 b23d 9965 ff3d 59f8 ca3d 11d2 cf3d
000001f0: 9962 be3d 6078 9f3d e971 053e ad42 d63d

net1.layer3.2.running_var f4 [128]
0.035952523 0.043644205 0.47108796 0.094591625 0.061314076 0.053402457 0.09841184 0.28463852
0.23758598 0.12251237 0.100245915 0.19850726 0.08054393 0.11060418 0.08513121 0.14531323
0.079628386 0.2715514 0.14390627 0.044253826 0.07402365 0.5807039 0.11875846 0.6711533
0.04592447 0.10721356 0.0968088 0.18123846 0.27091888 0.395775 0.2184812 0.12238744
0.38985726 0.12681064 0.1423809 0.09418825 0.051648412 0.07892603 0.19871294 0.019068664
0.10427178 0.14656493 0.45803154 0.019152997 0.08305463 0.20481665 0.11734154 0.26180452
0.13945398 0.22484057 0.2883979 0.2783646 0.12327378 0.25694537 0.1296455 0.040138002
0.06359474 0.034944765 0.14871998 0.37299368 0.11013753 0.120922945 0.070654705 0.06643663
0.1061179 0.11642099 0.16048963 0.254665 0.21402158 0.10586397 0.078750186 0.03356538
0.10310836 0.18864396 0.38354617 0.061638568 0.11496894 0.08414109 0.2864656 0.091703
0.048960883 0.077822044 0.5213938 0.055809088 0.2782576 0.4588151 0.7078513 0.225218
0.18877342 0.05748847 0.08124966 0.122519046 0.12105596 0.2586636 0.10681984 0.19417173
0.05618619 0.08978628 0.07149167 0.019951154 0.09326703 0.10674951 0.12825423 0.297643
0.22636274 0.021526968 0.43307346 0.2969469 0.07496999 0.25861794 0.1543727 0.03499071
0.24925976 0.057496127 0.5964061 0.1532767 0.07537826 0.067687236 0.22205752 0.35743156
0.13955148 0.2739153 0.18798016 0.048019484 0.1494454 0.054244913 0.31240007 0.056158707
00000000: f442 133d 44c4 323d 7132 f13e 41b9 c13d
00000010: 7824 7b3d 89bc 5a3d 268c c93d 24bc 913e
00000020: bd49 733e c4e7 fa3d bb4d cd3d 7d45 4b3e
00000030: 37f4 a43d 7284 e23d 4659 ae3d fecc 143e
00000040: 3514 a33d c908 8b3e 2a5c 133e 8043 353d
00000050: b699 973d 03a9 143f a337 f33d b4d0 2b3f
00000060: 4c1b 3c3d c892 db3d b143 c63d 9396 393e
00000070: e1b5 8a3e 05a3 ca3e 89b9 5f3e 44a6 fa3d
00000080: 5f9b c73e a6da 013e 4ccc 113e c5e5 c03d
00000090: 498d 533d f8a3 a13d 687b 4b3e e335 9c3c
000000a0: 718c d53d 1e15 163e 1c83 ea3e bfe6 9c3c
000000b0: 8c18 aa3d 75bb 513e c350 f03d 3e0b 863e
000000c0: 06cd 0e3e 9b3c 663e e4a8 933e ce85 8e3e
000000d0: f776 fc3d 588e 833e cac1 043e bf67 243d
000000e0: f63d 823d 3e22 0f3d 0d4a 183e 07f9 be3e
000000f0: c98f e13d 73a6 f73d 6ab3 903d ee0f 883d
00000100: 5754 d93d 216e ee3d 6557 243e 7363 823e
00000110: 7928 5b3e 36cf d83d c747 a13d da7b 093d
00000120: 7a2a d33d e22b 413e 2a60 c43e b978 7c3d
00000130: d674 eb3d 2a52 ac3d 9eab 923e c8ce bb3d
00000140: 358b 483d 2a61 9f3d 107a 053f 1298 643d
00000150: c877 8e3e d0e9 ea3e be35 353f 8c9f 663e
00000160: d24d 413e 0879 6b3d 3966 a63d 44eb fa3d
00000170: 30ec f73d 8e6f 843e 5cc4 da3d f4d4 463e
00000180: 7e23 663d dfe1 b73d 3a6a 923d 9a70 a33c
00000190: c902 bf3d 7d9f da3d 1455 033e aa64 983e
000001a0: a2cb 673e 5359 b03c cebb dd3e 6d09 983e
000001b0: de89 993d 9269 843e e113 1e3e 6b52 0f3d
000001c0: f33d 7f3e 0f81 6b3d 12ae 183f 91f4 1c3e
000001d0: eb5f 9a3d 9b9f 8a3d 0c63 633e 4501 b73e
000001e0: 95e6 0e3e a03e 8c3e df7d 403e 14b0 443d
000001f0: 3708 193e ea2f 5e3d e7f2 9f3e ac06 663d

net1.layer4.0.weight f4 [224, 224, 3]
-0.01763834 0.010457165 -0.024906944 0.004197341 0.030875543 0.012725867 -0.034071587 -0.026392944
-0.0037412508 -0.0036031094 0.035543185 0.0111737335 -0.027779179 0.03136631 -0.029383857 0.0009144496
0.008865421 0.031855255 0.018486023 0.024970574 0.02933575 -0.036868628 -0.024652028 0.0017598043
0.018012738 0.020192228 0.023749566 0.036243718 0.010669761 0.004891152 -0.014218201 -0.031478
0.006348298 -0.007339978 -0.03509495 0.024593325 -0.020708049 0.019801958 -0.037180543 0.029202128
0.0037814975 -0.011959864 0.0042409617 -0.028912656 0.029617615 -0.015677942 0.038806096 0.032692023
0.023289366 -0.024999786 -0.0077622724 -0.018348495 -0.014846665 0.009299636 0.0060110264 0.03103774
-0.028725374 -0.0073420983 -0.02814794 0.003621832 -0.0074146097 0.022690086 0.009201605 0.024115603
-0.030611517 -0.03668104 0.0069010374 -0.008843266 -0.02576575 0.017611803 -0.027478244 0.016899278
-0.024774311 0.03938804 0.039966676 0.011442046 0.033765577 0.019471113 0.027657202 -0.033056106
0.026576333 0.015004376 -0.03783841 0.016027244 0.021768171 -0.015005669 -0.008381697 0.020919332
0.028970337 -0.030732669 0.029174717 0.03683894 0.013701612 0.037912555 -0.034285143 -0.03031912
0.0083384365 -5.964332e-05 -0.008434625 -0.019991772 0.016849168 0.032951716 0.008457006 -0.027076444
-0.0067632096 0.024223167 0.010648715 0.010593756 0.012843411 -0.032345865 -0.023574159 0.009429144
0.03194435 0.036148105 0.014923433 -0.021022359 0.005985076 0.038415264 0.014659395 0.036207974
0.023933684 -0.013007408 0.008293117 -0.017460627 0.02035559 0.026574414 -0.018562233 0.021418914
0.02229673 0.024634099 0.0389049 0.03968868 -0.035329014 0.014933037 0.004155893 -0.023594333
-0.03895478 0.0058401856 0.008767903 0.01711138 -0.010555549 -0.01869249 -0.012502874 -0.020174086
0.02560679 -0.0074324063 0.024447473 0.005792913 -0.020780731 -0.013121388 0.021229237 0.017850442
-0.032525677 -0.012279238 -0.011680818 -0.0033378343 -0.031825326 -0.037026435 -0.024178313 -0.03678676
-0.0070686326 -0.031782445 -0.011435801 -0.03669023 0.024075853 0.0054417076 0.00054125325 0.022954198
-0.0010769552 -0.029708154 -0.027188266 0.0131352795 0.010432006 0.022295302 -0.024564063 -0.012488636
0.012556108 0.024469374 0.020585535 0.0029722915 -0.01937401 0.0018762575 -0.033129416 0.015929377
0.027346062 -0.0006671757 -0.020374853 0.009761845 -0.0004264211 -0.0311152 0.032666124 -0.001796523
0.027206128 -0.02995404 0.028094016 0.039093703 0.02172262 0.015383857 0.03673128 0.039193742
-0.026535206 0.032047976 -0.030227507 -0.013670353 -0.0029116424 0.03420819 0.03603883 0.030578466
-0.0073475754 -0.034521636 0.0008765003 -0.019412553 0.02316325 0.0014578259 -0.025257573 0.0062772324
0.038158026 0.0024765758 0.008902914 -0.006293378 -0.02495049 -0.0340249 0.028171688 -0.020592032
0.02739848 0.03672362 -0.03322068 -0.034766983 0.031085439 -0.033881094 -0.012755609 -0.022534713
-0.020820484 0.023934945 -0.03393139 0.0049465555 -0.02023568 0.019081468 -0.012669112 0.022505082
0.020888852 0.009928981 -0.024298942 -0.013399455 0.028594267 -0.021110127 -0.017066564 -0.03584759
0.03903357 0.01235538 0.027929598 0.0393008 0.014008828 -0.020112144 -0.0013491749 0.025428277
00000000: 487e 90bc 8754 2b3c a609 ccbc d989 893b
00000010: b5ee fc3c 2880 503c a68e 0bbd 0436 d8bc
00000020: c62f 75bb 2522 6cbb bb95 113d 0912 373c
00000030: 2991 e3bc f679 003d 6ab6 f0bc adb7 6f3a
00000040: 4540 113c a87a 023d 0070 973c 178f cc3c
00000050: 8751 f03c 8f03 17bd 0df3 c9bc 3ca9 e63a
00000060: 738f 933c 2c6a a53c 738e c23c 4b74 143d
00000070: 39d0 2e3c f545 a03b 75f3 68bc 13ef 00bd
00000080: 6205 d03b 3384 f0bb b9bf 0fbd f177 c93c
00000090: eda3 a9bc b737 a23c a04a 18bd 4d39 ef3c
000000a0: 00d3 773b 4ef3 43bc c4f7 8a3b 3cda ecbc
000000b0: a4a0 f23c 076f 80bc 24f3 1e3d 12e8 053d
000000c0: 57c9 be3c 5acc ccbc a95a febb 954f 96bc
000000d0: 6d3f 73bc 805d 183c 25f8 c43b dc42 fe3c
000000e0: 7a51 ebbc fc95 f0bb 8296 e6bc 425c 6d3b
000000f0: 41f6 f2bb 8fe0 b93c 54c2 163c 168e c53c
00000100: 01c5 fabc dc3e 16bd 1922 e23b 59e3 10bc
00000110: b212 d3bc a146 903c 0e1a e1bc 5b70 8a3c
00000120: 7ff3 cabc 5a55 213d 19b4 233d 6b77 3b3c
00000130: c64d 0a3d e281 9f3c 5b91 e23c d765 07bd
00000140: 9cb6 d93c ead4 753c 73fc 1abd 914b 833c
00000150: 2a53 b23c 56da 75bc 6353 09bc 055f ab3c
00000160: 3353 ed3c 14c3 fbbc d1ff ee3c 6ee4 163d
00000170: ba7c 603c 324a 1b3d 946e 0cbd ce5f f8bc
00000180: f09d 083c 8729 7ab8 6231 0abc c9c5 a3bc
00000190: 4407 8a3c 61f8 063d 418f 0a3c 6bcf ddbc
000001a0: ea9d ddbb aa6f c63c f377 2e3c 6f91 2d3c
000001b0: 2c6d 523c 197d 04bd 981e c1bc b27c 1a3c
000001c0: 14d8 023d 0910 143d 6a81 743c 1537 acbc
000001d0: 751e c43b 5359 1d3d f62d 703c d04e 143d
000001e0: 9310 c43c 061d 55bc dbdf 073c 9709 8fbc
000001f0: c4c0 a63c 96b2 d93c d30f 98bc b876 af3c
00000200: a2a7 b63c 73cd c93c bf5a 1f3d 9990 223d
00000210: 28b5 10bd b2a9 743c 282e 883b e748 c1bc
00000220: 0c8f 1fbd 075f bf3b 40a7 0f3c 2a2d 8c3c
00000230: 2ef1 2cbc fe20 99bc dbd8 4cbc 2044 a5bc
00000240: 55c5 d13c 8b8b f3bb 1146 c83c 7ad2 bd3b
00000250: 5a3c aabc 17fb 56bc f0e8 ad3c 173b 923c
00000260: a539 05bd db2e 49bc e760 3fbc 91bf 5abb
00000270: 465b 02bd 08a9 17bd 9911 c6bc b7ad 16bd
00000280: fd9f e7bb 4f2e 02bd 3a5d 3bbc 7f48 16bd
00000290: b93a c53c 5a50 b23b e4e2 0d3a 710a bc3c
000002a0: 9f28 8dba 845e f3bc edb9 debc 5b35 573c
000002b0: 01eb 2a3c a3a4 b63c 933a c9bc 239d 4cbc
000002c0: 22b8 4d3c ff73 c83c ffa2 a83c c7ca 423b
000002d0: 3eb6 9ebc c1ec f53a b6b2 07bd 537e 823c
000002e0: d904 e03c 67e5 2eba 2ae9 a6bc 25f0 1f3c
000002f0: 4591 dfb9 4ee5 febc eacc 053d 4f79 ebba
00000300: 63df de3c 2d62 f5bc 6c25 e63c b820 203d
00000310: a3f3 b13c 930c 7c3c 8a73 163d 9e89 203d
00000320: 5c60 d9bc bd44 033d ad9f f7bc 9ef9 5fbc
00000330: 41d1 3ebb e31d 0c3d 749d 133d b17f fa3c
00000340: eec3 f0bb 8f66 0dbd f0c4 653a 1307 9fbc
00000350: dbc0 bd3c 8514 bf3a f8e8 cebc 3eb1 cd3b
00000360: 974b 1c3d 0c4e 223b 87dd 113c ae38 cebb
00000370: f864 ccbc b25d 0bbd 50c8 e63c 9fb0 a8bc
00000380: c772 e03c 826b 163d 6812 08bd d367 0ebd
00000390: e4a6 fe3c e7c6 0abd e7fc 50bc b89a b8bc
000003a0: b88f aabc 3813 c43c a4fb 0abd b716 a23b
000003b0: 4cc5 a5bc bd50 9c3c 1b92 4fbc 945c b83c
000003c0: 191f ab3c 2aad 223c 930e c7bc 6389 5bbc
000003d0: 863e ea3c 25ef acbc 2ecf 8bbc ecd4 12bd
000003e0: aae1 1f3d 386e 4a3c 9dcc e43c e0f9 203d
000003f0: 4985 653c 39c2 a4bc ccd6 b0ba f64e d03c
